Models/Damage_DropoutBNN_elu_Epoch723_LR1e-02_Dim500.pt (torch, 199752 bytes, 8 tensors)

fc1.weight_mu f4 [500, 45]
000000 91 36 02 41 1a 3f d1 be 49 a5 1f 3f ce f0 c7 40
       8.138322 -0.40868455 0.6236158 6.248145
000010 49 04 3a c0 2e 7f 37 3f d9 a5 48 bf d5 a9 2d 40
       -2.9065115 0.71678436 -0.78378063 2.7134907
000020 48 62 66 3f 4e bc 22 bf 03 5c 32 3f cf 2b c4 c0
       0.89993715 -0.6356858 0.6967165 -6.1303477
000030 6a a3 62 40 9a 44 4c 3f d0 ff 54 c0 8e f0 8d 40
       3.541224 0.7979218 -3.3281136 4.4356146
000040 68 ae 53 bf e4 5a 3c be 29 46 4a c0 69 5a 80 40
       -0.82688 -0.18394047 -3.1605322 4.0110364
000050 ee be 84 bc 8c 3b 75 3f 9b 00 33 c1 bb 71 63 3d
       -0.016204324 0.95793986 -11.187648 0.055528384
000060 c2 56 aa c0 c5 c9 e4 3f ac 7f 76 40 e6 e6 82 3f
       -5.3230906 1.7874075 3.8515425 1.0226715
000070 02 55 02 bf bc e8 1b 40 25 87 c0 c0 b5 94 7a 40
       -0.5091096 2.43608 -6.016497 3.9153264
000080 90 62 18 c1 64 00 e8 bd 49 1c b3 bf e6 34 06 40
       -9.524063 -0.113281995 -1.3993007 2.0969787
000090 79 54 8a bf be 81 69 bf 6c 0d 90 be 4c 99 ea bf
       -1.0807029 -0.91213596 -0.2813524 -1.8328032
0000a0 77 4b 76 3f 16 d8 9c bf 16 3a 8e 40 04 d0 3d c0
       0.962089 -1.2253444 4.4445906 -2.9658213
0000b0 f7 8a 0f 40 fa 16 64 3f 30 a6 34 bf 86 ff ae be
       2.2428567 0.8909756 -0.7056608 -0.34179324
0000c0 94 49 3a c0 ec 7b 9c be 0d 3a 89 c0 31 7e 86 c0
       -2.9107409 -0.30563295 -4.2883363 -4.202904
0000d0 e6 9a 22 40 17 b8 49 3d 1a c1 07 c0 71 28 44 c0
       2.5407043 0.049247827 -2.121161 -3.0649683
0000e0 1f 6e 3f 40 28 df b4 3e 11 af aa bf 74 40 a4 be
       2.9910963 0.35326505 -1.3334676 -0.32080424
0000f0 4b f6 63 3f a6 2b f2 bf b9 6a 7c 40 59 89 db be
       0.8904769 -1.891957 3.9440138 -0.42878225
000100 aa d9 b0 40 5a 15 1d bb 31 3c 6c 3f 2f 15 7d bf
       5.5265703 -0.0023969025 0.92279345 -0.9886045
000110 4f 7d e3 3d e0 4f c3 3f 29 8c ab 3f 3b dd 89 c1
       0.11107885 1.5258751 1.3402148 -17.233023
000120 74 89 c9 bd 15 7e 11 40 56 c9 de c0 ff d2 0a c0
       -0.0984067 2.2733204 -6.962077 -2.1691282
000130 6e bc 45 bf 2b 11 27 c0 ee 06 3b c0 29 1f b7 bf
       -0.77240646 -2.6104228 -2.922298 -1.4306384
000140 2f cc 17 40 9a 7b 20 bf c3 ff eb bf 10 25 90 c0
       2.3718374 -0.626886 -1.8437427 -4.504524
000150 00 59 7f 40 01 9a b7 bf 4b f8 12 c0 a1 23 2e 40
       3.9898071 -1.4343873 -2.2964046 2.7209246
000160 59 e4 4c 40 0e 3c 94 40 de 4d 63 40 1f 9d c4 bf
       3.2014372 4.632331 3.5516276 -1.536045
000170 03 ac 08 40 8a 07 29 41 49 22 81 3f 0d 24 c2 c0
       2.1354988 10.564341 1.0088588 -6.0669007
000180 20 e5 9a 40 dd a1 8f c0 26 24 95 3f 14 2c 3f 40
       4.8404694 -4.4885087 1.1651657 2.9870653
000190 02 a5 86 c0 9c 7e 4f 41 3f 58 c6 3e af c1 b8 bf
       -4.2076426 12.9684105 0.387392 -1.4434108
0001a0 08 79 96 40 fa 36 5d c0 48 39 85 bf fc 10 57 c0
       4.7022743 -3.4564805 -1.0408106 -3.3604116
0001b0 6f 41 85 c0 4f 39 b3 3e c7 b5 2b 3e d1 27 62 bf
       -4.1642375 0.3500466 0.16768561 -0.88342005
0001c0 a9 0c 16 bf b9 89 c1 bd 7c 4e 41 40 99 53 d3 3f
       -0.5861307 -0.09450097 3.0204153 1.6509887
0001d0 ba 3b 87 40 01 77 72 c0 0e 70 0a c1 03 86 54 40
       4.226041 -3.7885134 -8.652357 3.3206794
0001e0 e6 63 cd 3f 54 0b f0 bf 76 53 d1 3f 28 09 e6 3f
       1.6046112 -1.8753457 1.6353595 1.7971544
0001f0 6f 00 84 be 89 45 14 c0 da 15 2d 40 51 63 bf bf
       -0.2578158 -2.316744 2.7044587 -1.4952184
000200 4d 8c e6 bf 75 7d fa be 07 c1 89 be d6 08 89 40
       -1.8011566 -0.4892384 -0.2690508 4.2823286
000210 e0 21 10 bd d3 3a 69 40 5e 6b 9f 40 82 b1 a0 40
       -0.035188556 3.6442153 4.9818563 5.0216684
000220 28 86 25 c0 03 6e 66 40 73 81 b5 40 c3 07 ab 3e
       -2.5863132 3.6004646 5.672052 0.3340436
000230 ac ea 70 3e 8c 88 f7 bf 9e cd aa c0 e0 26 5b c0
       0.2352702 -1.9338546 -5.3375998 -3.4242477
000240 ab 03 eb 3f 46 27 a6 c0 af d5 ed 41 ad 95 6e 40
       1.8360494 -5.192294 29.729338 3.7278855
000250 41 97 dc bf 82 1b f3 bf c0 fe ec c0 cc c3 90 3f
       -1.7233659 -1.899277 -7.4060974 1.1309752
000260 b8 be 35 c0 fd 82 48 c1 28 15 74 c0 bd 71 6f bc
       -2.8397655 -12.53198 -3.8137913 -0.01461452
000270 79 c3 1a 3b bf 59 cd bf 33 7b 23 bb 35 3f 53 40
       0.0023615046 -1.6043013 -0.0024945259 3.3007329
000280 b5 4c a1 3f 81 c1 ee 3e c9 1d 27 bf e3 06 b8 bf
       1.2601534 0.46632007 -0.65279824 -1.4377102
000290 cc 72 85 bd a8 36 32 c0 a9 6b d3 c0 ae 7c b2 3f
       -0.065160364 -2.784586 -6.606892 1.3944299
0002a0 6a 17 2e c0 f8 91 18 c0 c4 6b c3 40 99 fd e5 bd
       -2.720179 -2.3839092 6.106905 -0.112300105
0002b0 68 22 87 40 e3 f7 02 40 f2 4a 3d 3f 55 ac d5 3f
       4.22295 2.0463798 0.7394248 1.6693217
0002c0 e5 ac aa 3e c3 2a 80 40 36 05 65 40 57 f3 61 40
       0.33335033 4.00522 3.578443 3.5304773
0002d0 08 65 d7 bf b6 74 77 c0 12 7a 8e 3e 31 2c 88 40
       -1.6827707 -3.8664985 0.27827507 4.2553945
0002e0 0f 82 f2 c0 98 be 4b 40 f9 3c 82 3f fa 92 7f c0
       -7.5783763 3.183508 1.0174857 -3.9933457
0002f0 d4 31 80 c0 cf c4 9e 3f 2c b7 18 bf 5a c2 08 c1
       -4.0060825 1.2403811 -0.596545 -8.547449
000300 96 c7 dd 40 b2 34 e0 bf 9a 5c e2 be 20 17 86 3f
       6.9306135 -1.7516081 -0.44211274 1.0475807
000310 4c ca b5 3e f2 14 0c c0 cc c8 18 c0 23 25 ce 40
       0.35505903 -2.1887784 -2.3872557 6.4420333
000320 16 9d 03 be 1c ab 07 bf fd 51 94 3f ed 52 9f 3d
       -0.12852892 -0.5299547 1.1587521 0.07779489
000330 87 1b 41 40 c7 81 46 3f dc 65 ab 40 c7 a5 60 40
       3.0173051 0.77541775 5.356184 3.5101182
000340 9d 89 03 c1 7f 42 6d c0 a8 7c 99 3f 33 81 14 40
       -8.221097 -3.7071836 1.1991167 2.3203857
000350 cf 01 a6 3f 9d 25 26 3e d5 78 b3 40 76 40 2f be
       1.2969302 0.16225286 5.6085 -0.17114434
000360 b8 1a 2b c0 38 42 b5 bf bf e3 56 3f e3 aa 5a 40
       -2.6735058 -1.4160833 0.8394126 3.41668
000370 87 d3 86 3f 30 eb 43 40 c7 dc 40 40 46 90 fd 3e
       1.0533303 3.0612297 3.0134752 0.49524134
000380 ed 62 00 c0 22 0c 0b 41 3a 83 22 bf ac b1 10 c0
       -2.006038 8.690462 -0.63481486 -2.2608442
000390 06 f5 06 c1 3e a7 e5 3f ba df dd bf 07 0a 4f c0
       -8.43482 1.7941663 -1.7333901 -3.234987
0003a0 0f 98 01 40 aa 21 ed 3f d4 45 a7 bf 19 d6 81 be
       2.024906 1.8525898 -1.3068185 -0.25358656
0003b0 49 6a 83 41 3f 6b 28 40 6e d4 fb 3d ea 12 64 c0
       16.426897 2.6315458 0.12296377 -3.5636544
0003c0 ea e5 0e c0 ee 40 13 3f 20 12 5b bf fe 0c 99 3f
       -2.2327828 0.5752095 -0.8557453 1.195709
0003d0 e2 07 02 41 51 f8 88 3d 25 be 4f 3f 76 83 39 c0
       8.1269245 0.066879876 0.8114951 -2.8986487
0003e0 94 2c 98 3c 7f 9c af bf dc 04 be 3f e2 45 0c c1
       0.018575944 -1.3719634 1.4845233 -8.767061
0003f0 32 14 93 be 50 ac 27 3e 61 d1 4a 3f d6 85 b3 bf
       -0.28726345 0.16374326 0.79225737 -1.4025218

fc1.weight_logvar f4 [500, 45]
000000 5e eb 12 c1 3c 15 71 c1 c6 9e 04 c1 46 a7 c0 c0
       -9.182463 -15.067684 -8.288763 -6.020419
000010 e9 0a 07 c1 86 3d f7 c0 e8 7a c4 c0 67 45 88 c0
       -8.440164 -7.72626 -6.140003 -4.258472
000020 b2 85 45 c1 98 05 9b c0 0d 94 16 c1 50 ea 49 c1
       -12.34514 -4.844433 -9.411145 -12.619705
000030 85 36 03 c1 26 f4 ba c0 10 e4 2a c1 de c7 cf c0
       -8.20081 -5.8423033 -10.680679 -6.493148
000040 4b dc 12 c1 74 80 92 c0 47 17 34 c0 ab 49 b7 c0
       -9.178782 -4.5781803 -2.8139207 -5.7277427
000050 3f e5 37 c0 77 f2 57 c1 79 11 56 c1 b7 32 3d c0
       -2.873367 -13.4966955 -13.379266 -2.9562204
000060 d6 45 9d c0 7e 1b 0e c1 dd 2f a3 bf 94 b6 bf c0
       -4.914775 -8.881712 -1.2748982 -5.9910374
000070 10 1b ea c0 84 12 c9 c0 63 30 3c c1 9a 08 cf c0
       -7.3158035 -6.28351 -11.761813 -6.4698
000080 5c 01 3a c1 ce 9a d2 c0 02 6a d3 c0 9c 1d 37 c1
       -11.625332 -6.581397 -6.6066904 -11.444729
000090 4b 39 19 c1 3a 77 3a c1 77 00 49 c1 56 79 16 c1
       -9.576488 -11.654108 -12.5626135 -9.404623
0000a0 e7 66 0f c1 bf a0 39 c1 b0 3a c3 c0 c3 b7 28 c1
       -8.962623 -11.601745 -6.100914 -10.544864
0000b0 0d 11 14 c1 e3 c4 41 c1 19 34 01 c1 a1 25 15 c1
       -9.254163 -12.110568 -8.075219 -9.321687
0000c0 6c 1b d0 c0 bb bc 9b c1 cf 56 54 c0 be 04 c5 c0
       -6.5033474 -19.467154 -3.3177984 -6.156829
0000d0 1c ef 92 c0 9a 34 50 c1 d1 e9 aa c0 36 6d da c0
       -4.591688 -13.012842 -5.341042 -6.8258314
0000e0 73 e2 c9 3f eb 31 6e c0 dd 7c 69 c1 16 8c 50 c1
       1.5772232 -3.7217968 -14.592984 -13.034201
0000f0 7d 4b 2e c0 7d 1e 3f c1 6c c3 4d c0 ad 84 e5 c0
       -2.7233574 -11.944943 -3.2150526 -7.172446
000100 a0 96 85 bf f7 ea 41 c0 5a 9b 0b c1 fb 39 36 c1
       -1.0436592 -3.029966 -8.725428 -11.389155
000110 8a e1 3b c0 1e 86 91 c0 75 b1 34 c1 ed 6d 0f c1
       -2.9356408 -4.5476217 -11.293324 -8.964337
000120 6a 94 30 c1 9c 67 42 c1 f8 cf 00 c1 f3 a8 81 c1
       -11.036234 -12.150295 -8.050774 -16.207495
000130 b2 8a be c0 bc 85 65 c1 de b6 54 c1 3b 4d e2 c0
       -5.9544306 -14.34515 -13.294645 -7.0719275
000140 3d 1b e7 c0 61 50 b2 c0 7f 3d d6 c0 81 03 69 c1
       -7.222075 -5.572312 -6.695007 -14.563355
000150 f2 93 8b c0 e9 29 1f c1 2e ea 4a c1 9a 70 c6 c0
       -4.3618097 -9.947732 -12.682173 -6.2012453
000160 58 27 8b c1 30 23 02 c1 8d bf 4d c1 c0 50 31 c1
       -17.39421 -8.133591 -12.859265 -11.082214
000170 aa 2c 7a c1 6f c6 77 c0 0e 05 87 c0 c8 b8 ae c0
       -15.635904 -3.8714864 -4.219367 -5.4600563
000180 7b 9b 7e c1 df 6d c9 c0 85 4e 34 c1 62 5b 5f c1
       -15.912959 -6.294662 -11.26917 -13.95981
000190 be 62 fb c0 4b 29 04 c1 6c 17 e5 c0 21 62 79 c0
       -7.8558035 -8.260081 -7.159109 -3.8966143
0001a0 6b 2a 6c c1 ff c0 d5 c0 a1 47 51 c0 57 24 e9 c0
       -14.760356 -6.679809 -3.269997 -7.285686
0001b0 bb 25 20 c1 06 b2 43 c1 73 12 3c c0 32 9e fa c0
       -10.009212 -12.230963 -2.938626 -7.831811
0001c0 8f d9 d9 c0 e5 c7 42 c0 37 ec 35 c1 22 18 09 c1
       -6.8078074 -3.0434506 -11.37017 -8.568392
0001d0 c3 bf 15 c1 fb f0 75 c1 11 97 3e c1 1a d8 2c c1
       -9.359317 -15.371333 -11.911881 -10.802759
0001e0 6e 8e 3e c1 00 d4 46 c1 ee 9a c0 c0 bb 21 08 c1
       -11.909773 -12.426758 -6.0189123 -8.508235
0001f0 d6 8f a4 c0 4a 1a f1 c0 4d 4f e1 c0 2b bd 34 c1
       -5.142558 -7.534459 -7.0409303 -11.296184
000200 96 42 0a c1 6e 10 d6 c0 f4 a8 fd c0 bd 7f 53 c1
       -8.641256 -6.6895056 -7.926874 -13.218686
000210 cd f4 14 c1 58 d3 19 c1 66 09 d6 c0 b5 d7 0b c1
       -9.309766 -9.614098 -6.6886473 -8.740163
000220 1d f4 d6 c0 10 21 f7 c0 51 c8 1e c1 66 a9 15 c1
       -6.717299 -7.722786 -9.923905 -9.353857
000230 6c ac 15 c1 30 fc 22 c1 60 0a 8e c0 f3 d5 19 c1
       -9.354595 -10.186569 -4.4387665 -9.614734
000240 33 62 31 c1 5f 33 d3 c0 a9 e3 59 c0 23 84 a2 c0
       -11.086474 -6.600021 -3.4045203 -5.07863
000250 c7 23 94 c0 5e 15 ee c0 a0 11 19 c1 e0 bb b0 c0
       -4.6293674 -7.4401083 -9.566803 -5.522934
000260 81 b0 cf c0 58 c9 ce c0 d2 ff 34 c1 6e 55 37 c0
       -6.490296 -6.462078 -11.312456 -2.8645892
000270 af 28 33 c1 d9 a8 f8 c0 02 e1 3b c0 aa b8 c0 c0
       -11.1974325 -7.7706113 -2.9356084 -6.022542
000280 2b e2 0e c1 9f 91 8b c0 75 39 4b c1 d3 4e f7 c0
       -8.930217 -4.361526 -12.701528 -7.728372
000290 11 77 c2 c0 79 48 15 c1 cc 5b 0c c1 2b 0b 49 c1
       -6.0770345 -9.3301935 -8.772411 -12.565227
0002a0 fa 2d 65 c0 85 20 27 c1 42 ef 00 c1 ee df c6 c0
       -3.5809312 -10.445439 -8.058413 -6.214835
0002b0 21 91 39 c1 7a 56 8c c1 12 6e ae c0 06 d8 7d c0
       -11.597932 -17.542225 -5.4509363 -3.96631
0002c0 22 3f db c0 e9 f7 30 c1 e4 e6 42 c1 1c 7f a6 c0
       -6.8514566 -11.060525 -12.18137 -5.2030163
0002d0 c7 15 fa c0 03 0a 37 c1 ef 12 09 c1 b2 36 33 c1
       -7.8151584 -11.439944 -8.567122 -11.200853
0002e0 fa fa 23 c1 b3 3a b8 c0 41 c0 c8 c0 4c 20 43 c1
       -10.248774 -5.7571654 -6.2734685 -12.195385
0002f0 ff 78 17 c1 5c e9 f4 c0 10 4d 10 c1 79 29 f6 c0
       -9.46704 -7.6534863 -9.018814 -7.6925626
000300 46 37 b7 c0 dc c4 4a c1 45 64 d2 c0 0c 42 21 c1
       -5.7254972 -12.673061 -6.57474 -10.078625
000310 f6 51 4e c1 cf 62 0b c1 6a 28 bc c0 e8 da 51 c1
       -12.89501 -8.711623 -5.8799334 -13.115944
000320 ea 97 3c c0 20 78 33 c1 8a 30 26 c1 80 54 40 c0
       -2.946772 -11.216827 -10.38685 -3.0051575
000330 85 97 b5 c0 6b cf 31 c1 8e 8e 91 c0 3e 0a e5 c0
       -5.674746 -11.113139 -4.5486517 -7.1575003
000340 94 bf 78 c1 18 ea b2 c0 00 8c 3b c1 65 33 e2 c0
       -15.546772 -5.591076 -11.72168 -7.0687737
000350 67 a8 dc c0 a5 fb 28 c1 15 91 68 c0 5f 0b 17 c1
       -6.895557 -10.561437 -3.633855 -9.440276
000360 f2 9f 6a c1 af 56 db c0 84 6d 0a c1 0d ee 3f c1
       -14.664049 -6.8543315 -8.651737 -11.995618
000370 6b 24 b7 c0 7e 96 a2 c0 1e b3 14 c1 4d f5 08 c1
       -5.7231956 -5.0808706 -9.29373 -8.559888
000380 8b d6 ba c0 23 d8 4b c0 a0 96 14 c1 72 d8 ae c0
       -5.8386893 -3.185067 -9.286774 -5.4639215
000390 08 e3 aa c0 3d 8d 66 c1 97 46 34 c1 51 4b f6 c0
       -5.340214 -14.409482 -11.267234 -7.696694
0003a0 3b 51 bc c0 7c b6 0a c1 d2 04 29 c1 30 1a 27 c1
       -5.884916 -8.669552 -10.563677 -10.443893
0003b0 05 43 44 c1 44 f0 bc c0 44 4b 9c c0 b6 6f e0 c0
       -12.266362 -5.9043293 -4.8841877 -7.0136366
0003c0 2c b5 0a c1 c3 7f c5 c0 50 c4 35 c1 19 4b 42 c1
       -8.669231 -6.171846 -11.360428 -12.143334
0003d0 45 1d c4 c0 d3 59 32 c0 20 33 25 c1 c5 b7 ae c0
       -6.128573 -2.7867324 -10.324982 -5.459933
0003e0 b4 a8 43 c0 08 73 96 c0 69 75 c4 c0 3c 2b 06 c1
       -3.0571718 -4.701542 -6.1393323 -8.385555
0003f0 96 19 07 c1 bf 9e e8 c0 9e 9d c5 c0 d4 5e 38 c1
       -8.443747 -7.269378 -6.1754904 -11.523151

fc1.bias_mu f4 [500]
000000 2f 59 e8 c1 77 81 c1 c1 b6 a6 be c1 73 89 b2 c1
       -29.043547 -24.188215 -23.831402 -22.317114
000010 c2 e9 97 c1 14 e7 c3 c1 02 9c cb c1 2b f5 da c1
       -18.98914 -24.487831 -25.451176 -27.36971
000020 2d fb c6 c1 ec d7 9d c1 82 63 da c1 9d ba b4 c1
       -24.872644 -19.73043 -27.298588 -22.59112
000030 1d d4 d3 c1 5f d3 f9 c1 1d ed 83 c1 95 af e7 c1
       -26.47857 -31.228209 -16.490778 -28.960733
000040 65 4b b1 c1 7a 7c 8c c1 92 60 b8 c1 67 19 d3 c1
       -22.161814 -17.56078 -23.047153 -26.387403
000050 26 8d e4 c1 ad 44 6d c1 22 4e 27 c1 8c e1 d2 c1
       -28.56892 -14.829267 -10.456575 -26.36013
000060 db e2 16 c2 f4 dd 60 c1 b6 44 be c1 24 15 d7 c1
       -37.72154 -14.054188 -23.78355 -26.885323
000070 80 4c 87 c1 bd 17 9a c1 67 8f 60 c1 bb 06 94 c1
       -16.912354 -19.261591 -14.03501 -18.503286
000080 11 0f 9d c1 d6 91 98 c1 62 ff f5 c1 68 36 dc c1
       -19.632357 -19.071209 -30.749699 -27.526566
000090 6d e5 3d c1 6c c9 9f c1 15 e1 ae c1 e2 af d3 c1
       -11.868512 -19.97335 -21.859903 -26.46088
0000a0 c8 b7 99 c1 11 39 d6 c1 91 e4 3d c1 e7 c1 d0 c1
       -19.214737 -26.777864 -11.868302 -26.094679
0000b0 b5 a1 a8 c1 54 4c d5 c1 63 c5 85 c1 69 2a 81 c1
       -21.078959 -26.66227 -16.72138 -16.145708
0000c0 cd 86 89 c1 99 7e db c1 95 8e b4 c1 d4 ff 71 c1
       -17.19082 -27.436815 -22.56962 -15.124958
0000d0 52 4a da c1 af 97 83 c1 12 9f a1 c1 6c a8 9b c1
       -27.28629 -16.449064 -20.202671 -19.457237
0000e0 0d 2a bb c1 a9 a8 da c1 aa 14 d1 c1 0f 5a 97 c1
       -23.395533 -27.332354 -26.13509 -18.918974
0000f0 dd 06 8a c1 02 2e ba c1 3a ee 90 c1 6d 29 16 c2
       -17.253351 -23.272465 -18.116322 -37.540455
000100 77 19 8e c1 03 4b af c1 6c e9 6b c1 38 6e c5 c1
       -17.762434 -21.911627 -14.744488 -24.678818
000110 c3 e6 80 c1 ed a2 96 c1 51 89 ac c1 cf 0a 8f c1
       -16.112677 -18.829554 -21.567049 -17.880278
000120 49 bb 54 c1 d3 90 b4 c1 57 b2 62 c1 8c c8 7b c1
       -13.295724 -22.570715 -14.16854 -15.736462
000130 c4 24 ca c1 cc 04 65 c1 57 a6 3d c1 1e e3 7b c1
       -25.267952 -14.313671 -11.85311 -15.742949
000140 04 b5 d8 c1 50 75 a9 c1 3c 3a e9 c1 7f 03 86 c1
       -27.088387 -21.182281 -29.153435 -16.751707
000150 b1 37 82 c1 d1 b5 d3 c1 e9 2d 8f c1 9c 13 9d c1
       -16.277193 -26.463778 -17.897417 -19.634575
000160 6e a1 b0 c1 1a 18 86 c1 e6 d5 be c1 5d 7e c6 c1
       -22.078823 -16.761768 -23.854443 -24.8117
000170 6b cf cf c1 68 d0 92 c1 0f be d4 c1 fe 96 b2 c1
       -25.976278 -18.35176 -26.592802 -22.323727
000180 b9 ef 85 c1 44 c4 a3 c1 78 d1 a0 c1 85 9a 13 c2
       -16.742052 -20.470833 -20.10228 -36.900898
000190 61 91 d7 c1 29 2e 8a c1 eb 47 d1 c1 d5 20 c2 c1
       -26.945986 -17.27254 -26.160116 -24.266031
0001a0 35 4d 92 c1 8b 59 b7 c1 19 b3 da c1 86 b2 7e c1
       -18.287699 -22.918722 -27.33745 -15.918585
0001b0 8e de 68 c1 99 b6 8d c1 ef e2 07 c2 94 8c ba c1
       -14.554335 -17.714159 -33.971615 -23.318642
0001c0 5a 41 c0 c1 f5 13 86 c1 d6 b6 4f c1 26 da cb c1
       -24.03191 -16.759745 -12.982138 -25.481518
0001d0 53 c3 aa c1 d7 eb 56 c1 73 79 be c1 39 a4 98 c1
       -21.345373 -13.432578 -23.809301 -19.080187
0001e0 6d 0c e7 c1 d0 9e b4 c1 42 ec af c1 db 95 c4 c1
       -28.881067 -22.577545 -21.99036 -24.573172
0001f0 9a 81 ca c1 af b0 9e c1 b5 d0 63 c1 9f 95 69 c1
       -25.313282 -19.836271 -14.238454 -14.599029
000200 24 67 08 c2 5c 2e 46 c1 e1 7c ba c1 1d 09 bc c1
       -34.100723 -12.386318 -23.310976 -23.50445
000210 9d 9f 88 c1 80 8f a4 c1 98 fd a6 c1 01 3b 8f c1
       -17.077936 -20.570068 -20.873825 -17.90381
000220 0b 2d c0 c1 ce 1a 9b c1 b1 cc db c1 3f f9 82 c1
       -24.021994 -19.388088 -27.474947 -16.371702
000230 db 19 9e c1 8a 11 b3 c1 ff e8 b0 c1 ed 45 0e c2
       -19.762625 -22.383564 -22.113768 -35.568287
000240 88 04 a6 c1 91 3b c0 c1 70 08 eb c1 7e 8a ca c1
       -20.752213 -24.029085 -29.37912 -25.317623
000250 df ad 86 c1 80 f0 b5 c1 3c 56 a8 c1 d5 eb ce c1
       -16.834898 -22.742432 -21.042107 -25.865152
000260 45 21 a7 c1 a9 15 d3 c1 a7 dd 98 c1 60 47 f4 c1
       -20.891245 -26.385576 -19.108229 -30.534851
000270 59 b9 cb c1 23 74 88 c1 23 49 c4 c1 9d 8a 85 c1
       -25.465502 -17.056707 -24.535711 -16.692682
000280 41 8c c2 c1 3f d8 a3 c1 89 45 93 c1 5b ba a2 c1
       -24.318483 -20.480589 -18.408953 -20.340994
000290 2b 18 89 c1 16 3e b5 c1 18 a5 b6 c1 25 ed c9 c1
       -17.1368 -22.655315 -22.830612 -25.240793
0002a0 24 7c c3 c1 6a 10 cf c1 32 ab 9a c1 80 cd 88 c1
       -24.435616 -25.883015 -19.333591 -17.100342
0002b0 a1 7f b0 c1 8f 2c 96 c1 68 ad 9b c1 e1 89 a1 c1
       -22.062319 -18.771757 -19.459671 -20.192324
0002c0 6b 5e ff c1 35 e8 c1 c1 e3 a2 be c1 ed c3 88 c1
       -31.921103 -24.238382 -23.829535 -17.095667
0002d0 44 84 95 c1 0d 4f 95 c1 75 50 91 c1 74 4d 97 c1
       -18.689583 -18.663599 -18.164286 -18.912819
0002e0 67 17 bc c1 e0 21 9d c1 eb a1 d5 c1 ea b5 47 c1
       -23.511427 -19.64154 -26.704062 -12.481913
0002f0 4f 8c 1f c1 10 50 f9 c1 09 7d 4b c1 38 27 ea c1
       -9.971755 -31.164093 -12.718026 -29.26915
000300 fd 83 bc c1 3c e2 40 c1 f3 c6 be c1 48 d2 a1 c1
       -23.564447 -12.055233 -23.847143 -20.227676
000310 c0 b1 9b c1 61 28 a4 c1 79 c2 8b c1 52 7c 88 c1
       -19.461792 -20.519716 -17.469957 -17.060703
000320 b0 51 87 c1 7f a0 8a c1 8b a7 a9 c1 96 cc 74 c1
       -16.914886 -17.328367 -21.206808 -15.299948
000330 d7 fb 99 c1 2a 35 98 c1 e6 5d 88 c1 9c e7 86 c1
       -19.247969 -19.025959 -17.045849 -16.86309
000340 50 7e 4a c1 35 c1 80 c1 b3 87 13 c2 64 02 d7 c1
       -12.655838 -16.09434 -36.88252 -26.876167
000350 eb 16 8d c1 c8 ea be c1 0e a6 8f c1 39 67 ae c1
       -17.63619 -23.86464 -17.956081 -21.800402
000360 fa b1 0f c2 13 bd 90 c1 29 00 cb c1 8b 9d 93 c1
       -35.923805 -18.092321 -25.375078 -18.451925
000370 ee 61 c2 c1 8e 5c aa c1 b9 ec 04 c2 7d 18 c1 c1
       -24.297817 -21.295193 -33.231174 -24.136957
000380 08 0b 4a c1 82 5f ea c1 ef 28 c9 c1 6d 5e 8a c1
       -12.627693 -29.296635 -25.144987 -17.296106
000390 65 5a 97 c1 dd ec a6 c1 18 83 9d c1 8b 09 52 c1
       -18.919138 -20.865656 -19.68901 -13.12733
0003a0 1c 9a ac c1 da 67 a2 c1 37 11 af c1 26 79 c7 c1
       -21.575249 -20.300709 -21.883406 -24.934155
0003b0 95 49 aa c1 b4 15 9f c1 8a fc 81 c1 8f 87 84 c1
       -21.285929 -19.885597 -16.24831 -16.56619
0003c0 ea 38 91 c1 17 49 a1 c1 52 14 91 c1 f9 bf a3 c1
       -18.15279 -20.160688 -18.134922 -20.468737
0003d0 f0 b3 8d c1 96 9a c9 c1 63 db f0 c1 68 f1 03 c2
       -17.71286 -25.200481 -30.107122 -32.98575
0003e0 b8 6d 9b c1 aa 80 d5 c1 2b 19 d9 c1 4a 54 93 c1
       -19.428574 -26.687824 -27.13729 -18.416157
0003f0 e2 9f d6 c1 8f ac 93 c1 18 65 55 c1 6d 18 d7 c1
       -26.828068 -18.459257 -13.337181 -26.886927

fc1.bias_logvar f4 [500]
000000 89 9a 3d c1 e5 79 bc c0 ff 94 f9 c0 5c 68 f2 c0
       -11.850228 -5.8898797 -7.799438 -7.575239
000010 22 62 bb c0 52 89 2d c0 90 d6 56 c1 2e 5b 91 c0
       -5.855729 -2.7115064 -13.427383 -4.5423803
000020 96 cc 67 c0 cb 42 04 c1 ea 55 b4 c0 fe c2 26 c1
       -3.621862 -8.266307 -5.6354876 -10.4226055
000030 c2 a3 26 c1 88 95 bf c0 00 d3 9f bf 4d 03 04 c1
       -10.41498 -5.9870033 -1.2486267 -8.250806
000040 e0 42 28 c1 50 37 04 c1 24 f7 1f c1 51 26 24 c1
       -10.516327 -8.263504 -9.997837 -10.259355
000050 3f 2f 9d c0 9e e4 e5 c0 1f b9 9a c0 a2 c7 15 c1
       -4.9120173 -7.1841574 -4.835098 -9.3612385
000060 0a ab f5 c0 f3 00 c5 c0 cd 94 0c c1 f5 6f b3 c0
       -7.677129 -6.156366 -8.786328 -5.6074166
000070 0b 30 cc c0 b7 a7 21 c1 03 9c 49 c0 b5 32 47 c1
       -6.3808646 -10.103446 -3.1501472 -12.44988
000080 2a 7d 09 c1 52 d8 06 c1 58 8e 53 c1 ac 57 c0 c0
       -8.593058 -8.427813 -13.222252 -6.010702
000090 90 e1 dd c0 da 02 04 c1 76 85 08 c1 ac 5c 1b c1
       -6.9337845 -8.250696 -8.532583 -9.710125
0000a0 dc 3b 4c c0 ee bb 23 c1 0f 56 3e c1 4f bf 04 c1
       -3.1911535 -10.233381 -11.89601 -8.296706
0000b0 40 01 af c0 7a 5b 3e c1 1a 6b 5f c0 7b 66 34 c1
       -5.4689026 -11.897333 -3.490912 -11.27502
0000c0 a1 6e 14 c1 f6 3d 23 c1 19 c9 bb c0 f2 66 d6 c0
       -9.277009 -10.202627 -5.868298 -6.7000666
0000d0 21 9d 85 c0 ef c4 30 c1 7b 02 6d c1 d1 d4 fe c0
       -4.175431 -11.0480795 -14.813106 -7.9634786
0000e0 85 f0 95 c0 06 6a c0 c0 94 e0 01 c1 e3 ed 93 c0
       -4.6856103 -6.0129423 -8.117329 -4.622789
0000f0 97 9d 38 c1 2a 07 fc c0 80 cf bf c0 a3 22 b6 c0
       -11.538474 -7.8758745 -5.9940796 -5.691728
000100 d9 70 9d c0 7d 45 8c c0 31 da 26 c0 57 4e 65 c0
       -4.9200253 -4.3834825 -2.6070673 -3.5829065
000110 91 34 06 c1 70 a6 f3 c0 fc 93 42 c1 88 d5 e0 3f
       -8.387834 -7.614067 -12.161129 1.7565165
000120 c7 6a 1d c1 7c c5 22 c1 59 0a bb c0 a6 f3 b0 c0
       -9.838569 -10.173214 -5.845013 -5.5297422
000130 da f1 07 c1 bc ff 9b c0 b2 7d 70 c0 53 69 13 c1
       -8.496546 -4.8749676 -3.7576718 -9.213214
000140 2a a4 0e c1 69 b5 23 c1 bc de 8a c0 8d e6 a2 c0
       -8.915079 -10.23179 -4.3396893 -5.0906434
000150 1c a1 13 c1 a1 ad 87 c0 f9 a5 0d c1 00 8c 7c c0
       -9.226833 -4.239945 -8.853021 -3.946045
000160 84 c5 69 c1 53 64 80 c0 9b 14 46 c1 f6 81 8e c0
       -14.610722 -4.0122466 -12.380031 -4.4533644
000170 7a f9 ea c0 76 4c 33 c1 1f 74 21 c1 6f 0a d4 c0
       -7.3429537 -11.206167 -10.09085 -6.6262736
000180 72 4f 5f c0 04 24 0f c1 0a 43 e6 c0 33 db f2 c0
       -3.489224 -8.946293 -7.1956835 -7.5892577
000190 ff 9b 78 c0 cd 4c 3c c1 65 19 ff c0 85 66 1f c1
       -3.8845212 -11.76875 -7.97185 -9.962529
0001a0 43 c9 f3 bf c5 6e c3 c0 19 bf 25 c1 a3 86 78 c0
       -1.9045795 -6.1072717 -10.359155 -3.8832176
0001b0 bc f4 a1 c0 da e4 8e c0 d1 9a 4c c1 81 61 66 c0
       -5.061125 -4.465436 -12.787797 -3.5997012
0001c0 12 81 ab c0 b1 3f 05 c1 5b 0e df c0 45 13 87 c0
       -5.3595057 -8.32805 -6.9705024 -4.221102
0001d0 60 64 2b c0 52 e5 41 c0 a6 77 e7 c0 24 ad 80 c0
       -2.6780014 -3.0296216 -7.2333555 -4.0211353
0001e0 b2 1d 0e c1 06 a9 b6 c0 aa 88 17 c1 79 32 f4 c0
       -8.88225 -5.7081327 -9.470865 -7.631161
0001f0 68 f2 b0 c0 a1 db f7 c0 ce 66 3a c0 21 d4 a9 c0
       -5.5295906 -7.74556 -2.9125247 -5.3071446
000200 ae 66 86 c0 bd 01 3f c0 d7 2c bd c0 28 cd 1e c1
       -4.200034 -2.984481 -5.9117236 -9.925087
000210 72 23 a5 c0 58 2b 5e c0 ee f5 f0 c0 8e 75 db c0
       -5.160577 -3.4713955 -7.5300207 -6.8581
000220 27 80 3e c1 98 a7 2e c1 f8 9c 53 c1 a1 53 2f c0
       -11.906287 -10.915916 -13.225822 -2.7394793
000230 01 71 73 c1 42 2d b2 c0 59 1f 72 c1 c8 7f 46 c1
       -15.215089 -5.5680246 -15.132653 -12.406197
000240 5a e9 17 c1 fb 31 f0 c0 6b e3 f7 c0 6c 44 1b c1
       -9.494471 -7.506101 -7.746511 -9.704205
000250 47 08 e8 c0 1b 4a 53 c1 d7 de 26 c1 5e 28 49 c1
       -7.2510104 -13.205592 -10.429404 -12.572355
000260 4d d4 28 c1 d6 42 69 c1 46 ed 88 c0 b6 07 28 c1
       -10.551831 -14.578817 -4.278964 -10.501883
000270 38 e9 1c c1 12 5d 38 c1 08 8a 86 c0 96 bf 53 c1
       -9.806938 -11.522722 -4.2043495 -13.234274
000280 56 3b 15 c1 2b cd 5a c1 bc 37 0b c1 73 47 49 c1
       -9.326986 -13.67509 -8.701107 -12.579944
000290 07 7b 20 c1 04 46 e9 bf 38 e6 12 c1 e5 81 9d c0
       -10.030036 -1.8224492 -9.181206 -4.9221063
0002a0 a6 fc 7a c0 65 f0 ee c0 bf 18 1d c1 74 ff c7 bf
       -3.9216704 -7.466845 -9.818542 -1.5624833
0002b0 eb e7 83 c0 ba 9e 7c c0 68 3c c5 c0 26 04 d5 c0
       -4.1220603 -3.947188 -6.163624 -6.6567564
0002c0 5e ea 29 c1 b2 3e 39 c1 f7 e1 bf c0 ba 18 0c c1
       -10.619719 -11.577806 -5.9963336 -8.756037
0002d0 5b 7f 28 c0 f6 35 f5 c0 72 31 bc c0 b2 61 15 c1
       -2.6327732 -7.662837 -5.881036 -9.336351
0002e0 32 02 d6 c0 bf a2 1a c1 13 cc 43 c1 49 b7 40 c0
       -6.687768 -9.664733 -12.237323 -3.0111868
0002f0 eb 34 0a c1 93 e5 1a c1 6c ae 0f c1 1b 70 59 c0
       -8.637919 -9.681048 -8.980083 -3.3974674
000300 6b 5c 39 c1 4a 15 cd c0 73 20 c2 c0 cf d6 a9 c0
       -11.585063 -6.408849 -6.066461 -5.3074718
000310 2f e6 12 c1 74 b7 f5 c0 4f 9e 51 c1 6e 1e 03 c1
       -9.181197 -7.678644 -13.10115 -8.194929
000320 30 7f 15 c1 37 8d 05 c1 c0 bf 0f c1 95 5e 95 c0
       -9.343552 -8.346976 -8.984314 -4.6677957
000330 5f c8 34 c1 ea 12 28 c1 38 ca da c0 c0 bb de c0
       -11.298919 -10.504618 -6.837185 -6.9604187
000340 8a e8 8d c0 95 8f 47 c1 82 ae 29 c1 30 ed a2 c0
       -4.434636 -12.472554 -10.605104 -5.0914536
000350 c4 70 f9 c0 d4 5c 20 c1 32 aa f9 bf c9 b7 53 c1
       -7.7950153 -10.022663 -1.9505064 -13.232369
000360 5c c5 f8 c0 0c 1f c0 c0 a1 42 39 c1 05 ec 4d c1
       -7.7740917 -6.00379 -11.578767 -12.870122
000370 b8 91 b0 c0 e7 61 86 c0 c8 30 37 c1 e8 79 ca c0
       -5.517788 -4.199451 -11.4494095 -6.327381
000380 b7 45 38 c0 ec 46 32 c1 09 6e 1c c1 fc 13 9a c0
       -2.879255 -11.142315 -9.776864 -4.8149395
000390 2b d0 13 c1 3f 43 9e c0 09 d2 23 c1 bb f9 05 c1
       -9.238322 -4.9457088 -10.238778 -8.373469
0003a0 7b fc eb c0 46 2d 9b c0 db 52 cf c0 46 8b 08 c1
       -7.3745704 -4.8492765 -6.478864 -8.534002
0003b0 83 80 3d c0 cc 93 01 c1 c1 87 2e c1 51 cb ae c0
       -2.9609687 -8.098583 -10.908143 -5.462319
0003c0 52 cd 6d c0 72 14 d1 c0 d3 31 e0 c0 d4 d8 bb c0
       -3.7156568 -6.533746 -7.006082 -5.8702183
0003d0 b0 55 2a c1 09 a5 86 c1 8b 38 f9 c0 ca 05 d4 c0
       -10.64592 -16.830584 -7.788152 -6.6257067
0003e0 8b 6c ea c0 ac b2 3d c0 90 2c 84 c0 cc 17 12 c1
       -7.32575 -2.9640303 -4.1304398 -9.13081
0003f0 22 56 e3 c0 6e 9c 08 c1 e3 aa 4f c1 60 b4 af c0
       -7.1042643 -8.538191 -12.97922 -5.4907684

fc2.weight_mu f4 [3, 500]
000000 b0 eb 95 be b7 fe 8b 3e 63 b4 7d 3f 38 6f b2 3e
       -0.29281378 0.2734277 0.99103373 0.34850478
000010 7e dc 0a 3f a8 dc a9 3f 74 6a a7 bd c0 8e bd 3e
       0.54242694 1.3270464 -0.08174601 0.37022972
000020 22 f8 7e 3d b2 23 16 3f 2e aa a1 3f 70 9d b9 3c
       0.062248357 0.58648217 1.263006 0.02265808
000030 f3 84 62 3d 2f dd 84 3e a6 20 9a 3e 49 d6 2d 3f
       0.05530257 0.2595 0.30103034 0.679051
000040 0c 74 b8 3e 53 b3 3a be 53 ff 04 3f 85 46 88 3f
       0.36026037 -0.1823247 0.51952094 1.0646521
000050 e2 83 8f 3f 0c c6 72 be 1d 47 17 3f 49 67 5a 3f
       1.1212122 -0.23708361 0.59092885 0.8531385
000060 3b a8 b8 3f 33 8c 1a bf fe 45 82 3f e4 0b a1 3f
       1.442634 -0.6037018 1.017761 1.2581754
000070 a6 6d 8e bc 0d 86 34 3f 11 e4 1a 3d 40 e2 16 bf
       -0.017386269 0.70517045 0.037815157 -0.5893898
000080 22 67 a6 3e c8 74 a8 3e 84 0b 6a 3f 3a 0e 32 3f
       0.3250056 0.32901597 0.9142382 0.6955296
000090 20 98 57 3e b3 f4 35 3d 0f d9 b2 be 6d d0 f2 3e
       0.21054125 0.044422816 -0.34931228 0.4742464
0000a0 9b 01 55 3f 44 0b 0e 3f b3 4e a5 3d 0b 66 81 3f
       0.83205575 0.5548594 0.08071651 1.0109266
0000b0 87 8c a1 be 1a 7c af 3f 62 a6 fc 3d 2f 15 b7 3e
       -0.31552526 1.3709748 0.123364225 0.3575835
0000c0 9a 8f d7 bc 8e 6b 5e bd c8 4c a2 3f 50 42 9d 3f
       -0.026313592 -0.05430179 1.2679682 1.2285862
0000d0 57 43 fa 3e 45 54 4c 3e 7b e0 af be 3a 7b bf bd
       0.488795 0.19954021 -0.34350953 -0.093496755
0000e0 0b 3a 22 3f 10 fd 7e 3f 0c d7 49 3f ca 25 74 3f
       0.63369817 0.9960489 0.7884376 0.9537016
0000f0 ef 3c 84 3e 69 cb e9 3e 4e 4a a6 bd 2e e2 73 3f
       0.2582774 0.45663002 -0.08119641 0.95267
000100 27 3e d5 3c c8 81 11 be c0 4f 9c bd 35 d6 b5 bf
       0.026030613 -0.14209664 -0.076323986 -1.4205996
000110 06 0f 91 3f 60 f8 38 bf 0a 38 5f 3e 8b 9f 80 3e
       1.133271 -0.7225399 0.21798721 0.25121722
000120 e0 7e fc be 29 9d 8e 3f bb 39 b0 3e 4f 4d 0d be
       -0.49315548 1.1141711 0.34419045 -0.13799022
000130 80 4e fc 3e 94 a5 2a bf 08 7d 73 bd de 92 eb be
       0.4927864 -0.666589 -0.05944541 -0.46010488
000140 26 a1 8c 3f 7f 4a b1 bd 6a 06 83 3f 13 23 02 3f
       1.0986679 -0.08656787 1.0236332 0.5083477
000150 55 66 b2 3e 0a 2d 46 bf aa af 9d bd c7 e7 2e 3e
       0.34843698 -0.77412474 -0.07699521 0.17080604
000160 d5 5d 8e 3e 2e 15 77 3d 54 94 f8 be 6e d1 34 3d
       0.27805963 0.060322933 -0.48550665 0.04414504
000170 4c c1 ae 3e 9c 18 ca 3e f4 ca 29 3e f7 2c 31 3e
       0.3413185 0.394719 0.16581327 0.17302309
000180 10 43 49 bf ca 6f 4a 3f 87 3d c9 be f0 36 57 3f
       -0.78617954 0.79076827 -0.39304754 0.840682
000190 42 8f c2 3e c2 76 bf 3d 00 a6 ef 3e 50 3d 04 bf
       0.37999922 0.09348823 0.46806335 -0.51656055
0001a0 eb 9f 6d bf 73 7a d5 3e d1 cb 0e 3f e9 33 98 3d
       -0.9282214 0.41694984 0.5577975 0.07431776
0001b0 55 29 9b be c0 ea 3b bf 72 62 7d 3f 6c 24 11 3e
       -0.3030497 -0.73405075 0.9897834 0.1417405
0001c0 65 f5 19 3d d9 6b cb be eb 3a 75 3e 05 65 97 bd
       0.037587542 -0.3973072 0.23948257 -0.07392315
0001d0 85 e7 2e 3f d2 58 3c be 2c 2c 42 3f 09 51 7c 3f
       0.6832202 -0.18393257 0.7584865 0.9856115
0001e0 f6 b8 25 3f 95 32 5c bf 79 f6 cd 3e 80 a9 62 3f
       0.64735353 -0.8601468 0.40227106 0.88539886
0001f0 88 dd 66 3f 37 aa f0 3c 04 2f 00 3e 1c 59 e5 3e
       0.9018178 0.02937804 0.12517935 0.44794548
000200 fe f8 9d 3f 0a 99 2f bd 23 31 f8 bd cc 08 d2 3e
       1.2341611 -0.04287056 -0.12118747 0.41022336
000210 51 ec 9c be b4 39 3b bf b3 4e 05 bf 41 ae 80 3f
       -0.30649045 -0.73134923 -0.5207321 1.0053178
000220 56 80 8d 3e 46 7f 69 3e 62 f7 69 3f a2 af d3 3e
       0.27636975 0.22802457 0.913931 0.41344935
000230 03 a9 c5 3e 26 17 37 bf e7 20 4c 3f 87 b7 6a 3f
       0.38605508 -0.71519697 0.79737705 0.9168629
000240 ba 09 e3 be b9 14 91 3e 14 f3 43 3e 18 4a 24 3f
       -0.44343358 0.28336123 0.19135696 0.6417556
000250 7c d0 b9 3e 01 b8 79 3e 2c 13 21 3f c9 ca a7 3f
       0.36291873 0.24386598 0.6291988 1.310876
000260 dc b7 c8 be 7f ba 43 bf a1 02 ee 3e d9 96 c6 3f
       -0.39202774 -0.76456445 0.4648638 1.5514785
000270 29 35 5d 3f e4 22 dd be 8b 3c 8a be b6 c6 43 bf
       0.8640924 -0.43190682 -0.26999316 -0.76475084
000280 a4 5e 03 3f f8 49 15 3f 61 62 36 3f cd ce e7 3d
       0.51316285 0.5831599 0.71243864 0.11318741
000290 47 89 cd bd d6 5d c8 3f 63 6d 8d 3f be be 10 3f
       -0.10035949 1.5653636 1.1049007 0.5654105
0002a0 91 08 4a 3e d4 99 d7 3e de b0 3d 3f 8b ee 88 3b
       0.1972983 0.4210955 0.74098 0.004178827
0002b0 5d 88 a9 be 09 d8 0f bf eb 3a 95 3e a0 62 72 3f
       -0.3311185 -0.5618902 0.29146513 0.9468174
0002c0 f7 40 49 3f 38 4a 3e 3f 41 d7 2e 3f 7a 06 22 3b
       0.78614753 0.74332 0.682972 0.0024723099
0002d0 75 15 92 3c 03 a4 4c 3f dc 87 3b bf 1d 09 6c 3e
       0.017832497 0.7993776 -0.7325418 0.23050351
0002e0 ab a9 0d be 39 26 18 3f a5 d0 88 3d 36 81 e6 bc
       -0.13834254 0.59433323 0.06680421 -0.028137784
0002f0 5f 99 0f be b1 63 4c 3f c3 e2 22 3f 8d 30 84 3f
       -0.1402335 0.79839617 0.6362726 1.0327317
000300 9a b2 5a 3f da f3 92 be 87 dc 2a bf f8 02 e0 3e
       0.85428774 -0.2870167 -0.6674275 0.43752265
000310 2b de 92 3f b5 2a 3d 3f e4 49 22 3f 3e 9c 89 3f
       1.147405 0.7389329 0.63394 1.0750806
000320 be 10 cf 3d a9 ad f4 be 72 04 11 3f 79 f1 69 3f
       0.10110615 -0.47788742 0.5664741 0.91384083
000330 24 b1 cb 3d 02 d9 18 3f 45 5f 45 3d 18 6a 07 3e
       0.09945896 0.5970613 0.04818656 0.13224065
000340 87 b2 6e 3d bc 15 b3 bd 3d 1f 38 3f 3f bd dc 3e
       0.058275726 -0.0874438 0.71922666 0.43113133
000350 ff 9a cb be d6 5a c1 be 2b 62 b7 3f 4f 91 6d 3f
       -0.3976669 -0.37764615 1.4326833 0.9279985
000360 70 53 4f 3f d7 61 05 be bd d7 16 3f b4 86 2d bf
       0.8098669 -0.13025604 0.5892294 -0.67783666
000370 8c a4 55 3f 58 50 46 3e 99 6a 0b bf 17 50 b7 3e
       0.83454204 0.19366586 -0.5445953 0.3580329
000380 b2 18 13 3f 99 bd 08 be 05 36 38 3f 5b 05 8e 3d
       0.5745956 -0.13353576 0.7195743 0.06934615
000390 0a 5b d7 3c 15 2a 36 3f 31 d1 d4 3e 6f 5e b0 3f
       0.026288528 0.7115796 0.4156585 1.3778819
0003a0 28 f1 0e 3f f2 95 be 3d eb 2c 95 3e 2a a5 c0 3f
       0.55836725 0.093059435 0.29135832 1.5050404
0003b0 c9 bf 68 3f 17 ec c4 bc 10 9a 86 3c 58 82 ea 3c
       0.9091764 -0.024038358 0.016430885 0.028626606
0003c0 82 81 0f be b7 d1 0b 3f 17 92 95 3f 4d 75 6b 3f
       -0.14014247 0.54616874 1.1685208 0.9197586
0003d0 97 9e 6c be db a1 48 3f 78 e7 03 3f 81 39 fc 3d
       -0.23107372 0.7837197 0.5152507 0.123156555
0003e0 21 16 b8 3e e6 33 63 bf 7c ca 5a 3f e0 7a 14 bf
       0.35954383 -0.88751066 0.85465217 -0.5799999
0003f0 b7 af 92 3f 14 03 71 3e f8 a0 3f 3f 30 b4 53 3f
       1.1459874 0.2353633 0.74854994 0.8269682

fc2.weight_logvar f4 [3, 500]
000000 48 e0 08 c1 f5 8e 4b c1 be 09 84 c1 b6 cc 59 c1
       -8.554756 -12.722402 -16.504757 -13.612478
000010 3e b4 4c c1 c9 e5 3a c1 58 c0 3b c1 ab 11 04 c1
       -12.794004 -11.6811 -11.734459 -8.254313
000020 51 fe 10 c1 0a 13 4c c1 17 ed 31 c1 48 43 48 c1
       -9.062089 -12.754648 -11.120383 -12.516426
000030 b8 96 77 c1 94 d4 3b c1 e5 0a 65 c1 01 d2 43 c1
       -15.474297 -11.739399 -14.31516 -12.2387705
000040 ac 41 4a c1 58 bd 43 c1 97 27 4e c1 89 a8 04 c1
       -12.641033 -12.2337265 -12.8846655 -8.291146
000050 65 85 20 c1 0d 5e 2d c1 3a 8b 23 c1 7d 4a 43 c1
       -10.032567 -10.835462 -10.221491 -12.205686
000060 d5 96 f4 c0 ac 13 56 c1 d9 c1 3a c1 e8 be 38 c1
       -7.643412 -13.379803 -11.672326 -11.546608
000070 d9 dc 16 c1 b0 01 28 c1 b8 d6 24 c1 21 fd 4a c1
       -9.428918 -10.500412 -10.302422 -12.686799
000080 92 78 7b c1 c5 43 8d c1 f5 b5 21 c1 dd b6 2e c1
       -15.716936 -17.65809 -10.106923 -10.919644
000090 42 1c 3a c1 49 5d 15 c1 87 e0 31 c1 52 9d 0c c1
       -11.631899 -9.335275 -11.117316 -8.788408
0000a0 1a cc 23 c1 0d 72 56 c1 f1 fb 35 c1 9e ab 36 c1
       -10.2373295 -13.402844 -11.374009 -11.416899
0000b0 e6 69 5a c1 f7 43 35 c1 b2 9c 3f c1 aa dc 5e c1
       -13.650854 -11.329093 -11.975756 -13.928873
0000c0 b2 20 19 c1 cb 07 1f c1 49 89 3d c1 bd bc 38 c1
       -9.570482 -9.939403 -11.846017 -11.546079
0000d0 69 dc 2d c1 3b c4 4d c1 f9 cd 14 c1 81 38 0e c1
       -10.866311 -12.860408 -9.300286 -8.888795
0000e0 85 fe 20 c1 2b 1b 0c c1 76 57 46 c1 1d ee 58 c1
       -10.062139 -8.756633 -12.396353 -13.558133
0000f0 6e b6 2c c1 4a 97 53 c1 16 c7 49 c1 fb b2 62 c1
       -10.7945385 -13.224436 -12.611105 -14.168696
000100 62 c4 1f c1 19 4c 4e c1 50 c0 2c c1 32 eb 25 c1
       -9.985445 -12.893579 -10.796951 -10.369921
000110 87 b0 51 c1 96 f8 38 c1 f8 b5 2e c1 fd e5 42 c1
       -13.1055975 -11.56069 -10.919426 -12.1811495
000120 ee 10 1e c1 83 1d 26 c1 b1 64 43 c1 b0 ea 34 c1
       -9.879133 -10.382205 -12.212083 -11.307297
000130 22 3c 1a c1 63 97 36 c1 a7 67 2f c1 0e c7 41 c1
       -9.639681 -11.41196 -10.962806 -12.111097
000140 6e ff 05 c1 06 82 0b c1 f9 6d 37 c1 76 98 5b c1
       -8.374861 -8.719244 -11.464349 -13.724722
000150 c3 ea 52 c1 c9 50 12 c1 c9 15 39 c1 48 27 33 c1
       -13.182315 -9.144723 -11.567819 -11.19709
000160 e2 a8 7a c1 22 93 51 c1 72 fc 4b c1 15 fe 42 c1
       -15.666231 -13.098421 -12.749132 -12.187032
000170 4a fd 27 c1 f9 a5 39 c1 38 55 49 c1 4d bf 57 c1
       -10.499338 -11.603021 -12.583305 -13.484204
000180 cd 41 32 c1 b1 7e 56 c1 2a 73 41 c1 e1 4f 33 c1
       -11.141065 -13.4059305 -12.090616 -11.207002
000190 99 6b 4f c1 c9 7e f3 c0 7c 86 5f c1 c9 e2 5f c1
       -12.963769 -7.6092267 -13.970333 -13.992867
0001a0 e4 3b 2d c1 33 9a 5c c1 13 66 29 c1 0c 49 76 c1
       -10.827122 -13.787646 -10.58742 -15.392834
0001b0 e6 88 00 c1 f7 4c 1a c1 4d f5 2c c1 97 a8 0d c1
       -8.033422 -9.64379 -10.809888 -8.85366
0001c0 0d b4 6f c1 9a 6b 4e c1 3a 9b 40 c1 9f 69 e9 c0
       -14.981458 -12.90127 -12.037897 -7.294143
0001d0 22 07 29 c1 69 32 10 c1 c8 dd 28 c1 45 dd 41 c1
       -10.564241 -9.012307 -10.554146 -12.116521
0001e0 17 8a 28 c1 46 f1 57 c1 03 c1 44 c1 b6 a6 02 c1
       -10.533713 -13.496405 -12.297122 -8.165701
0001f0 58 71 3b c1 5e e8 5f c1 86 ea 13 c1 b0 2f 1b c1
       -11.715172 -13.99423 -9.244757 -9.699142
000200 bb 28 50 c1 c6 9a 0f c1 19 9a 04 c1 9a 42 50 c1
       -13.009944 -8.9752865 -8.2876215 -13.01626
000210 40 3d 18 c1 a4 14 5e c1 7b e4 0e c1 cd 6c 55 c1
       -9.514954 -13.880039 -8.930781 -13.339063
000220 3e 96 1f c1 8c 77 40 c1 51 a7 3e c1 a7 64 4d c1
       -9.97418 -12.029186 -11.915849 -12.837073
000230 7e c0 5d c1 9a 89 3a c1 b8 e5 07 c1 45 f9 22 c1
       -13.859495 -11.658594 -8.493584 -10.185857
000240 5f 6e 38 c1 81 e9 14 c1 b4 e0 33 c1 9f a3 1d c1
       -11.526946 -9.307008 -11.242359 -9.852447
000250 68 0a 13 c1 c0 52 7c c1 73 d6 dd c0 df ee 4f c1
       -9.190041 -15.770203 -6.932428 -12.995818
000260 ef 67 33 c1 e0 b2 7f c1 55 54 34 c1 14 c6 27 c1
       -11.212874 -15.981171 -11.270589 -10.485859
000270 d9 27 4b c1 10 c2 3d c1 a8 5b 18 c1 03 21 30 c1
       -12.697228 -11.859879 -9.522377 -11.0080595
000280 7d 7a 35 c1 23 b8 5b c1 b8 78 21 c1 40 42 9a c1
       -11.342404 -13.732455 -10.091972 -19.282349
000290 37 ca 5a c1 6c 29 35 c1 c9 69 2a c1 aa b6 29 c1
       -13.674369 -11.322613 -10.650826 -10.607096
0002a0 3a ea 18 c1 da 69 53 c1 a6 fe 21 c1 c0 6f 3b c1
       -9.557184 -13.213343 -10.12467 -11.714783
0002b0 3c 04 2f c1 1f e5 16 c1 31 fe 3f c1 9d 2f 17 c1
       -10.938534 -9.430938 -11.999558 -9.449124
0002c0 d1 c8 3b c1 87 0c 26 c1 0b 24 07 c1 53 16 6b c1
       -11.736527 -10.378058 -8.4463 -14.69295
0002d0 51 1a 1f c1 f1 03 1e c1 a1 9a 44 c1 cd e7 27 c1
       -9.943925 -9.875962 -12.287751 -10.494092
0002e0 6a 2f 6b c1 e4 6f 56 c1 10 b9 43 c1 66 5f 78 c1
       -14.699076 -13.402317 -12.232681 -15.523291
0002f0 27 a8 1d c1 40 b9 10 c1 ce 3b 32 c1 c9 a0 34 c1
       -9.853553 -9.045227 -11.139601 -11.289254
000300 09 f2 22 c1 4a 7b 0d c1 b1 a0 39 c1 97 9b 3b c1
       -10.184091 -8.8426 -11.601731 -11.725486
000310 81 2d 6a c1 bf 63 4e c1 c1 71 4b c1 ff ae 6d c1
       -14.636109 -12.899352 -12.715272 -14.855224
000320 ab 37 3d c1 58 3a 13 c1 ef f1 f6 c0 5c 67 88 c1
       -11.826091 -9.201744 -7.717033 -17.050468
000330 d5 30 28 c1 8f a0 19 c1 59 20 11 c1 27 66 72 c1
       -10.511922 -9.601699 -9.070397 -15.14994
000340 3c 9e 40 c1 36 69 0b c1 b5 aa 08 c1 4c f7 6a c1
       -12.038631 -8.713186 -8.5416765 -14.685375
000350 63 46 20 c1 c9 4c 0a c1 9e 2e 2f c1 4d 1d 27 c1
       -10.017184 -8.643746 -10.948881 -10.4446535
000360 84 23 15 c1 be 93 2f c1 2c 80 16 c1 c3 b2 55 c1
       -9.321171 -10.97357 -9.406292 -13.356143
000370 70 ea 10 c1 3c 32 2e c1 d2 72 65 c1 2d 0c 30 c1
       -9.057236 -10.887264 -14.340532 -11.002973
000380 00 05 3f c1 64 63 6a c1 6b 01 1c c1 fd 76 1d c1
       -11.938721 -14.649265 -9.750346 -9.84155
000390 5b 36 0e c1 00 74 20 c1 04 b5 3c c1 6b 35 85 c1
       -8.88827 -10.02832 -11.794193 -16.651083
0003a0 e2 60 66 c1 b9 6f 23 c1 67 d4 8b c1 72 81 9c c1
       -14.398653 -10.214776 -17.478712 -19.563206
0003b0 23 86 1a c1 61 7d 3a c1 9d 4a 2c c1 49 4e 14 c1
       -9.657748 -11.65561 -10.768216 -9.269113
0003c0 5c de 28 c1 2c 2c 17 c1 d7 fa ef c0 18 8a 39 c1
       -10.554287 -9.448284 -7.49937 -11.596214
0003d0 b1 85 72 c1 f1 67 34 c1 1b 57 16 c1 61 9d 24 c1
       -15.1576395 -11.275376 -9.396266 -10.288423
0003e0 b1 ec 31 c1 cb 95 0c c1 d3 f3 03 c1 bb d5 40 c1
       -11.120286 -8.786571 -8.247027 -12.05218
0003f0 7e e9 2b c1 09 49 37 c1 d8 31 64 c1 a6 af f3 c0
       -10.744505 -11.455331 -14.262169 -7.6151915

fc2.bias_mu f4 [3]
000000 92 d6 92 c0 b9 76 58 40 ce 56 e7 3e
       -4.5886927 3.3822463 0.45183414

fc2.bias_logvar f4 [3]
000000 af 43 ad c0 9b 1e 11 c1 7b 77 fd c0
       -5.414512 -9.069972 -7.920835
